python/drp_model.pth (torch, 7469 bytes, 6 tensors)

fc1.weight f4 [32, 16]
0	0x3e69c318	0.22828329
1	0x3ea287ae	0.3174414
2	0xbe1b8d4c	-0.15190619
3	0x3e8af023	0.27136335
4	0xbd252601	-0.040319446
5	0x3d398600	0.045293808
6	0xbdecc0f4	-0.115602404
7	0x3d8b8dc5	0.0681415
8	0x3e376578	0.17909801
9	0xbe5e1fad	-0.21691771
10	0x3deb8b84	0.1150122
11	0x3d940c5b	0.07228919
12	0x3e4737a6	0.19454822
13	0x3d62da84	0.055384174
14	0x3e06b229	0.131539
15	0xbdcf4d92	-0.10122217
16	0x3cb193fa	0.021677006
17	0xbe3ef48b	-0.18647973
18	0xbe9110ee	-0.2833323
19	0xbe134316	-0.1438106
20	0xbdd6a754	-0.10481134
21	0xbe3ae7ad	-0.1825244
22	0xbe2d0f31	-0.16900326
23	0x3d9200b3	0.071290396
24	0xbbeef5eb	-0.0072924993
25	0xbe2488a1	-0.16067745
26	0xbdb2071f	-0.086927645
27	0xbdc83408	-0.09775549
28	0x3c931dc8	0.017958537
29	0xbeb09377	-0.34487507
30	0x3d8acd96	0.06777494
31	0xbe86a790	-0.26299715
32	0x3ebb1c0d	0.3654484
33	0x3edc43d1	0.4302049
34	0xba2ce8aa	-0.0006595949
35	0x3eb37354	0.35048926
36	0x3d36269f	0.044470426
37	0x3eac7cc6	0.33688945
38	0x3e109907	0.14120875
39	0xbdb01d69	-0.085993595
40	0xbe0b9f5a	-0.13635007
41	0x3dcdb344	0.10043958
42	0x3d6f5be5	0.058437247
43	0x3e06c12d	0.13159628
44	0x3e183937	0.14865576
45	0x3dcc6ac3	0.09981301
46	0x3e959172	0.29212528
47	0x3dcd4763	0.100233816
48	0x3e707093	0.23480444
49	0xbd8b60f0	-0.06805599
50	0xbe7031c9	-0.23456492
51	0x3db9f02a	0.09079011
52	0xbe70ff54	-0.235349
53	0x3eb12c0c	0.34603918
54	0x3e06290f	0.131016
55	0x3db3008b	0.08740338
56	0x3d9d2bb0	0.07674348
57	0xbceae7fd	-0.028675074
58	0x3e239e17	0.15978275
59	0xbde948bb	-0.11390825
60	0xbca2c53d	-0.019869441
61	0xbd9f429e	-0.07776378
62	0x3db5342b	0.08847841
63	0xbc4d4d12	-0.012530582
64	0xbe64d443	-0.22346596
65	0xbe86cc0f	-0.2632756
66	0x3dc83043	0.0977483
67	0xbe995a92	-0.29951912
68	0xbdf661bc	-0.1203036
69	0xbe69ba61	-0.22825004
70	0x3e061c05	0.13096626
71	0x3dcb703d	0.09933517
72	0x3eb14bbc	0.34628093
73	0xbe46ef8d	-0.19427319
74	0xbe06841d	-0.13136335
75	0xbe1e830a	-0.15479675
76	0xbdba5b99	-0.09099502
77	0x3c62819e	0.013824848
78	0xbc538fff	-0.012912749
79	0x3e52170f	0.20516609
80	0x3d4d4553	0.05011494
81	0x3e5c45d8	0.21511018
82	0x3e76c83b	0.2409982
83	0x3e33bc93	0.17552404
84	0x3e1bd8b9	0.15219392
85	0x3e24e1a7	0.16101705
86	0x3e7a6dba	0.2445592
87	0xbe1b3ef1	-0.15160729
88	0xbe74be6b	-0.23900764
89	0x3e9558b0	0.29169226
90	0x3c9cebcb	0.019155404
91	0xbcdae6e3	-0.026721423
92	0x3e2c2639	0.16811456
93	0x3ed16aec	0.40901887
94	0xbd5ddda6	-0.05416646
95	0x3d036eb4	0.032087997
96	0x3d80c4e5	0.06287555
97	0xbe22c741	-0.15896322
98	0xbdebefc4	-0.11520341
99	0xbe906ec3	-0.28209504
100	0xbde810fc	-0.113313645
101	0x3d9c394c	0.07628116
102	0xbd0f712b	-0.035020035
103	0xbe441f9d	-0.19152685
104	0x3d7358e8	0.05941096
105	0xbe181de4	-0.14855152
106	0xbe242f64	-0.16033703
107	0xbe1c77ea	-0.15280119
108	0xbdf2397e	-0.11827372
109	0xbe2b02e5	-0.16700323
110	0x3e2b0266	0.16700134
111	0x3daf4195	0.08557431
112	0xbdd9dc1e	-0.10637687
113	0xbed0ec42	-0.4080525
114	0xbe803b8f	-0.2504544
115	0xbe905519	-0.28189924
116	0xbb7878b0	-0.0037913732
117	0xbeb455b6	-0.35221642
118	0xbdc22917	-0.094804935
119	0xbe1859b3	-0.14877968
120	0x3de03c07	0.10948949
121	0xbd87e124	-0.06634739
122	0x3cacbe4b	0.021086833
123	0xbdb0faeb	-0.08641609
124	0xbdc7f7bd	-0.09764049
125	0xbe2b057f	-0.16701315
126	0xbe2a4db9	-0.16631211
127	0xbe6ec8fc	-0.23318857
128	0x3c962162	0.018326465
129	0xbe9cbde4	-0.30613625
130	0x3de57121	0.11203218
131	0xbe141874	-0.14462453
132	0xbe6bb31e	-0.23017547
133	0x3bd55651	0.006510534
134	0xbe283bb5	-0.16429026
135	0xbe384b51	-0.17997481
136	0x3c92fbcf	0.017942337
137	0xbe91faa7	-0.28511545
138	0x3d8a73f5	0.06760398
139	0xbce5b089	-0.02803828
140	0x3e1a73ac	0.15083188
141	0xbeadd7e8	-0.33953786
142	0xbd2b78df	-0.04186332
143	0xbe7dedf2	-0.247978
144	0xbe364e6b	-0.17803352
145	0xbe8f5b58	-0.27999377
146	0x3d4baf75	0.049727876
147	0xbc99eb15	-0.018788854
148	0x3e173921	0.14767887
149	0xbeb61ca2	-0.3556872
150	0x3daf9792	0.085738316
151	0xbe0fbf46	-0.14037809
152	0x3db3c286	0.08777337
153	0xbe4b3d64	-0.19847637
154	0x3e51690c	0.20450228
155	0xbddb15cd	-0.106975175
156	0x3d40b2ce	0.04704552
157	0xbd03c05c	-0.03216587
158	0x3d2a65c6	0.041600965
159	0xbe1ebebe	-0.1550245
160	0x3dbdb72f	0.09263455
161	0xbe58577b	-0.21127121
162	0x3c4f6521	0.012658388
163	0xbee5d015	-0.44885316
164	0x3cf80ccb	0.030279538
165	0xbe3fdf39	-0.18737496
166	0xbe29497c	-0.16531938
167	0x3e4e58f3	0.20151119
168	0x3e038b4a	0.12846103
169	0xbe108ced	-0.14116259
170	0xbd177d76	-0.036984883
171	0x3d4bcd8f	0.049756583
172	0x3e3ba3f4	0.18324262
173	0xbe20450a	-0.15651336
174	0xbe6dc834	-0.23220903
175	0xbde5cd9d	-0.11220858
176	0xbe9ccf9e	-0.3062715
177	0xbe8d94b8	-0.27652526
178	0x3dbcac13	0.09212508
179	0xbf019e99	-0.50632626
180	0x3d1e30ed	0.038620878
181	0xbcc500ba	-0.024048198
182	0x3cf3e50c	0.029772304
183	0xbdc47c4e	-0.09594022
184	0x3e6f05b2	0.23342016
185	0xbd2ef5c8	-0.042714864
186	0x3e0c41ed	0.13697024
187	0xbc255bea	-0.010092715
188	0xbd1526d4	-0.036413983
189	0xbe16a101	-0.14709856
190	0xbdfd64f9	-0.12372775
191	0xbd922d01	-0.0713749
192	0x3e7a05f4	0.24416333
193	0x3f2bb4c2	0.6707269
194	0x3b9ba895	0.004750321
195	0x3e58239c	0.21107334
196	0x3c8548b5	0.016270021
197	0x3e16f8f1	0.14743401
198	0x3d47f319	0.04881582
199	0xbccfb4fd	-0.025354857
200	0xbeb365ff	-0.35038754
201	0x3d953866	0.07286148
202	0x3ce04fcd	0.027381802
203	0x3dddcb31	0.10829771
204	0xbcc594cb	-0.024118802
205	0x3deed8a6	0.11662416
206	0xbdbd3eee	-0.092405185
207	0xbe19ad92	-0.15007618
208	0x3d414b56	0.047190987
209	0x3f0314a3	0.51203364
210	0x3e54ce00	0.20781708
211	0x3ebd0af4	0.3692242
212	0xbe55c540	-0.20876026
213	0xbc123dda	-0.008925879
214	0xbd46bb46	-0.04851844
215	0x3e4f11a3	0.20221572
216	0xbe4e4d55	-0.20146687
217	0x3d38295e	0.044961326
218	0x3cdeb065	0.02718372
219	0xbd107003	-0.035263073
220	0xbe042d6f	-0.12907957
221	0x3ecad3c5	0.39614692
222	0x3d1fe14a	0.03903321
223	0x3d81a895	0.063309826
224	0xbea61b8c	-0.32442892
225	0xbdc91ef7	-0.09820359
226	0x3dd043d1	0.10169185
227	0xbe280bf5	-0.16410811
228	0xbe41075c	-0.18850464
229	0xbee50d75	-0.4473683
230	0xbe83ea27	-0.25764582
231	0x3dd79fb4	0.10528508
232	0x3e986081	0.29761127
233	0x3dbc0018	0.091797054
234	0x3e4d95a7	0.20076619
235	0x3e32abf1	0.17448403
236	0x3c0cd6fc	0.008596178
237	0xbeabba98	-0.33540797
238	0xbec554c0	-0.38541222
239	0xbe9c19cc	-0.3048843
240	0xbd2e614c	-0.04257326
241	0xbeca2f47	-0.39489195
242	0xbe043262	-0.12909845
243	0xbeb52c60	-0.35385418
244	0xbd47dde7	-0.048795607
245	0xbea4ae29	-0.32164124
246	0xbe3147e1	-0.17312576
247	0x3d4a6578	0.049413174
248	0x3e0a324c	0.13495749
249	0x3da8423e	0.0821576
250	0xbc0ea9e0	-0.008707494
251	0xbd9d6042	-0.07684375
252	0xbba2b330	-0.0049652085
253	0xbe87bae7	-0.26509783
254	0xbe730bb6	-0.23734936
255	0xbe73a40a	-0.23793045

fc1.bias f4 [32]
0	0x3e20172f	0.15633844
1	0xbe0cafe4	-0.13738972
2	0xbd114198	-0.035462946
3	0xbe6ea0a3	-0.23303466
4	0x3e756447	0.23964034
5	0xbe0cdd08	-0.13756192
6	0x3e09cc2a	0.13456789
7	0x3ca1187c	0.019664995
8	0x3c882643	0.016619807
9	0x3e0d8310	0.13819528
10	0x3c546774	0.012964118
11	0x3ea06cd5	0.31333032
12	0x3e6af93a	0.22946635
13	0xbd3fdb93	-0.04684026
14	0x3e203784	0.15646178
15	0x3ddab03b	0.106781445
16	0x3db31d40	0.08745813
17	0x3ddd3942	0.10801937
18	0x3cbb0185	0.022827873
19	0xbd72fd2d	-0.05932348
20	0x3d0519b5	0.03249522
21	0x3e2e4592	0.17018726
22	0x3e3653b4	0.17805368
23	0x3b9a96f7	0.0047177034
24	0xbe43db84	-0.19126707
25	0xbbc42cbe	-0.005986779
26	0xbe021947	-0.12704955
27	0x3e133a00	0.14377594
28	0xbc7caaa4	-0.015421543
29	0xbac34cef	-0.0014900247
30	0xbda91bf2	-0.08257283
31	0x3dcf8d05	0.10134319

fc2.weight f4 [16, 32]
0	0x3df1f4cf	0.11814272
1	0x3decde4d	0.11565838
2	0xbdaab3d6	-0.08335082
3	0x3c3224cd	0.010873032
4	0x3e7164b3	0.2357357
5	0xbe3b78fa	-0.18307868
6	0x3a2251dc	0.00061920076
7	0x3e5e02ed	0.21680804
8	0x3d541158	0.051774353
9	0x3e146da9	0.14494957
10	0x3e139f11	0.14416148
11	0x3db7a44b	0.08966883
12	0xbc346f0b	-0.011012803
13	0xbd69b96c	-0.057061598
14	0x3e88a16f	0.26685664
15	0x3ea572c1	0.32314113
16	0x3d3fb07d	0.04679917
17	0x3daf98e1	0.08574081
18	0xbbeca6eb	-0.0072220466
19	0xbe672974	-0.22574407
20	0x3d55296e	0.052041464
21	0xbe717456	-0.23579535
22	0xbd10dacf	-0.035364922
23	0xbe25aeb7	-0.1617993
24	0xb80815c0	-3.2445183e-05
25	0x3d3f0128	0.046631962
26	0xbdfb284a	-0.12263544
27	0x3d32e166	0.043671988
28	0x3dd01fbb	0.10162302
29	0x3e465433	0.19368057
30	0x3e6fb4bd	0.2340879
31	0xbdae2f1d	-0.0850508
32	0xbd42be29	-0.047544632
33	0x3e03c75f	0.12869023
34	0xbe4da8df	-0.2008395
35	0xbdc3eff8	-0.09567255
36	0x3e3613cb	0.17780988
37	0xbe13c0b9	-0.14428987
38	0x3d5fe78c	0.05466418
39	0x3e698b63	0.22807078
40	0x3db178f2	0.086656466
41	0x3e0b6b1c	0.13615078
42	0x3c62018b	0.013794313
43	0x3dff4534	0.12464371
44	0xbbd687c9	-0.0065469486
45	0xbcc54a94	-0.024083413
46	0x3e36be9e	0.17846152
47	0x3e7b1080	0.24518013
48	0xbdff4d7e	-0.12465952
49	0x3c842e50	0.016135365
50	0xbdae956f	-0.08524596
51	0xbe57e0c5	-0.21081837
52	0x3da47cce	0.08031617
53	0xbe214992	-0.15750721
54	0x3e2f0adf	0.1709399
55	0x3cd38ca4	0.025823899
56	0x3bdbb846	0.0067053167
57	0x3e3c9d5b	0.18419401
58	0xbe199c63	-0.15001063
59	0x3d51547e	0.05110597
60	0x3dd5f314	0.10446754
61	0xbd3b5f4d	-0.045745183
62	0xbcc6a9fe	-0.02425098
63	0xbd437e10	-0.047727644
64	0x3e877340	0.26455116
65	0x3dccb22a	0.099949196
66	0x3e972e99	0.2952774
67	0xbb154c2a	-0.0022780993
68	0xbdd1d3fe	-0.102455124
69	0x3ea536d1	0.32268384
70	0xbbff7104	-0.007795455
71	0xbe17f9a2	-0.14841321
72	0x3d07ca53	0.033151936
73	0xbdef9d7b	-0.11699959
74	0xbdae0b5f	-0.084982626
75	0xbc28816c	-0.010284763
76	0x3dede1eb	0.11615356
77	0x3e4337e3	0.19064288
78	0xbe510660	-0.20412588
79	0xbe38a993	-0.18033437
80	0x3e1b642d	0.15174933
81	0x3d5195a5	0.051168103
82	0x3d75a434	0.05997105
83	0x3e471b46	0.19443998
84	0xbe86ecee	-0.26352638
85	0x3e0ec69a	0.13942948
86	0xbdcc50eb	-0.099763714
87	0x3b8195d9	0.003954631
88	0xbcfb48db	-0.030674389
89	0x3dd2c67c	0.10291764
90	0x3dd5a53c	0.104319066
91	0xbd738957	-0.05945715
92	0xbe629b60	-0.22129583
93	0xbd99ea1e	-0.075153574
94	0xbd7ece73	-0.062208604
95	0x3db8edf0	0.09029758
96	0x3e2dff4d	0.16991921
97	0xbe10857b	-0.14113419
98	0x3ec1b0b2	0.3783012
99	0x3e2c1b00	0.16807175
100	0xbe14a500	-0.14516068
101	0x3df61ce2	0.12017228
102	0x3d394e65	0.04524078
103	0xbe4bd1e5	-0.19904287
104	0xbba0eabc	-0.004910795
105	0xbde24006	-0.11047368
106	0xbc8728af	-0.016498892
107	0xbe3a8049	-0.18213
108	0x3ea1d367	0.316066
109	0x3e73fd67	0.23827134
110	0xbdb02503	-0.086008094
111	0xbd0c6aa6	-0.034281395
112	0x3e17343c	0.1476602
113	0x3db49a9f	0.08818554
114	0x3d145dd3	0.03622229
115	0x3e951708	0.29119134
116	0xbe607753	-0.21920519
117	0x3e39ff83	0.18163876
118	0xbdccf65d	-0.100079276
119	0x3e3df767	0.18551408
120	0x3c8abadb	0.016934803
121	0x3c26c15a	0.010177935
122	0x3e4e37c2	0.20138457
123	0x3d9bced0	0.07607806
124	0xbc91dffe	-0.017807003
125	0xbe002a7d	-0.12516208
126	0x3d01e6e9	0.031714354
127	0x3e604009	0.21899427
128	0x3d273ca4	0.040829316
129	0x3e57f457	0.21089302
130	0xbe80d4bf	-0.25162312
131	0xbbb5e9b9	-0.0055515436
132	0x3d87a47a	0.06623168
133	0xbdc10cd1	-0.09426273
134	0xbcf7ce21	-0.030249657
135	0x3e7809bc	0.24222463
136	0x3e1fc74f	0.15603374
137	0x3dc426f2	0.09577741
138	0x3e4e1dd8	0.20128572
139	0x3e8bcc8e	0.273045
140	0xbdef2993	-0.116778515
141	0x3da2df6c	0.079527706
142	0x3dd8b320	0.105810404
143	0x3e5630d1	0.2091706
144	0xbe738b57	-0.23783623
145	0xbe2d7a66	-0.16941223
146	0x3d8d9661	0.06913448
147	0x3dbcc7aa	0.092177704
148	0x3e63eccd	0.22258301
149	0x3da5c23e	0.080936894
150	0x3e1687f2	0.14700297
151	0x3d662125	0.056183953
152	0x3e8debef	0.27719066
153	0x3e8af529	0.27140167
154	0xbe324d41	-0.17412283
155	0x3e887327	0.26650354
156	0x3eb22e7c	0.3480109
157	0x3dfd0153	0.12353768
158	0x3dc0a808	0.094070494
159	0xbe63a961	-0.22232582
160	0x3e41fbf8	0.18943775
161	0xbe044a70	-0.1291902
162	0x3e9dc1cf	0.30811927
163	0x3e20806b	0.15673988
164	0xbe50964b	-0.20369832
165	0x3e87ded5	0.26537195
166	0xbd9d6ba8	-0.076865494
167	0x3c14e122	0.009086879
168	0x3c9ac654	0.018893398
169	0xbe2e998a	-0.17050758
170	0x3c7430d9	0.014904224
171	0xbd8e5a67	-0.06950837
172	0x3e57b3f3	0.21064739
173	0x3de463f5	0.11151878
174	0xbe1ee5e6	-0.15517387
175	0xbe1a955b	-0.15096037
176	0x3d4507eb	0.048103254
177	0x3e608231	0.21924664
178	0x3dac3b18	0.08409709
179	0x3e9d963f	0.3077869
180	0xbdfef2d0	-0.124486566
181	0x3e42445e	0.18971393
182	0x3c988b4f	0.018621115
183	0xbc808b26	-0.015691351
184	0xbe809f1f	-0.251214
185	0xbd2c7dbb	-0.042112093
186	0x3e65ed76	0.22453865
187	0xbdc34167	-0.09533959
188	0xbe9825c4	-0.29716313
189	0x3cbee2bf	0.02330148
190	0x3db21b7f	0.08696651
191	0x3e816796	0.25274342
192	0xbd232afd	-0.03983592
193	0xbe3fe8a0	-0.18741083
194	0x3e81976b	0.25310835
195	0x3e2ceb74	0.16886693
196	0x3d0721cb	0.03299121
197	0x3e3fcf7d	0.18731494
198	0xbaf27e27	-0.0018500731
199	0x3ddb061d	0.106945254
200	0xbe2312d5	-0.15925153
201	0xbdb1821c	-0.086673945
202	0x3d076bbe	0.033061735
203	0xbe70e9c2	-0.23526672
204	0xbc558aad	-0.013033551
205	0x3eaed3c7	0.34145948
206	0xbcb97c04	-0.022642143
207	0xbc64220f	-0.013924136
208	0x3ce2aff8	0.027671799
209	0x3d197246	0.037462495
210	0x3dfdbcac	0.12389502
211	0x3ce591a1	0.028023543
212	0xbd8fafbc	-0.070159405
213	0x3e0fca9f	0.14042138
214	0xbe27d4a3	-0.16389708
215	0x3e7970dd	0.2435946
216	0xbe2a020c	-0.16602343
217	0xbdbd0943	-0.09230282
218	0x3c9edd36	0.019392591
219	0xbe183e78	-0.1486758
220	0xbe8c7659	-0.27434042
221	0x3d5b45ab	0.053533237
222	0x3d065fe2	0.032806285
223	0xbe0607dc	-0.13088936
224	0x3c1115a8	0.008855261
225	0x3dff1e11	0.124569066
226	0x3e7e67ed	0.24844332
227	0x3de27d1f	0.11059021
228	0xbe192ff0	-0.14959693
229	0x3e07c6b5	0.13259394
230	0xbde11b60	-0.109915495
231	0xbe027497	-0.12739788
232	0xbdf753c6	-0.120765254
233	0xbce01f76	-0.027358752
234	0xbdfbaa90	-0.122883916
235	0xbe33dce5	-0.17564733
236	0x3e20e6f4	0.15713102
237	0x3e09f547	0.13472472
238	0xbdd09a13	-0.10185637
239	0xbd2bd3fe	-0.04195022
240	0x3c09e1ec	0.00841568
241	0xbd0be8de	-0.034157626
242	0x3da9c906	0.08290295
243	0x3e4648d4	0.19363719
244	0xbe4ffbb5	-0.20310862
245	0x3e7c56fb	0.24642555
246	0xbe00c9ea	-0.12577024
247	0x3e562a79	0.2091464
248	0xbcd4b9b8	-0.025967464
249	0xbe1cc318	-0.15308797
250	0x3e5dc07f	0.21655463
251	0xbe1143fa	-0.14186087
252	0xbe43e732	-0.19131163
253	0xbdc1358e	-0.09434043
254	0xbddfa9d5	-0.10921065
255	0x3e83a076	0.2570836

fc2.bias f4 [16]
0	0x3d291a7d	0.041285027
1	0xbc7fceac	-0.015613239
2	0x3d1795b1	0.03700799
3	0xbca76f11	-0.020438703
4	0xbdf56e30	-0.11983907
5	0x3e1ec8c8	0.1550628
6	0x3dfef1f0	0.1244849
7	0x3e426e1f	0.1898732
8	0xbd20ebcd	-0.039287377
9	0x3ded0944	0.11574033
10	0xbda80565	-0.08204154
11	0x3da38959	0.07985181
12	0x3dd87e4f	0.105709665
13	0x3e5725e9	0.21010555
14	0x3e100c2b	0.14067142
15	0x3e1bb1b5	0.15204509

out.weight f4 [2, 16]
0	0x3e1f11f6	0.15534195
1	0x3e5b2474	0.21400625
2	0xbe92b3c3	-0.28652772
3	0xbda0b2d8	-0.07846612
4	0x3cfd98af	0.030956594
5	0xbe2b82ce	-0.16749117
6	0xbe713d24	-0.2355848
7	0xbe558525	-0.20851572
8	0x3d1744ad	0.03693073
9	0xbe7af8ac	-0.24508923
10	0xbe93c08f	-0.28857848
11	0xbe81946e	-0.25308555
12	0xbc78e061	-0.015190215
13	0x3e9ec552	0.31009918
14	0x3eabe321	0.33571723
15	0xbcd147a7	-0.025546862
16	0xbe8eb680	-0.2787361
17	0xbeb0a1c7	-0.34498426
18	0x3e956e99	0.29185942
19	0x3ea647ef	0.32476756
20	0xbea546c2	-0.32280546
21	0x3e810b04	0.25203717
22	0x3e6aeed5	0.2294267
23	0x3e22a335	0.15882571
24	0xbea1cdd3	-0.31602344
25	0x3eba9975	0.36445203
26	0x3e71eb61	0.23624946
27	0x3e471206	0.19440469
28	0xbe0b3f02	-0.13598254
29	0xbbb87037	-0.0056286114
30	0xbe8f0d33	-0.27939758
31	0x3ed44c29	0.41464356

out.bias f4 [2]
0	0xbbef39f4	-0.0073006097
1	0x3d5320a1	0.05154479
